server/NoiseAI/models/sound_classification.tflite (tflite, 182808 bytes, 10 tensors)

sequential/conv2d/BiasAdd/ReadVariableOp f4 [16]
0	0xbe48da86	-0.1961461
1	0xbdc77ed4	-0.097409874
2	0xbd890cb2	-0.066918746
3	0x3ceea83a	0.029132951
4	0xbe77ed2c	-0.24211568
5	0xbda95ae2	-0.08269288
6	0xbe4842fb	-0.19556801
7	0xbde03052	-0.10946716
8	0x3e123a3d	0.14280029
9	0xbd9a5250	-0.07535231
10	0xbe1691db	-0.14704077
11	0xbcf80a50	-0.030278355
12	0xbdd8a742	-0.10578777
13	0x3bf30e9b	0.0074175126
14	0xbe2c53c1	-0.16828825
15	0xbe3e8b6f	-0.18607877

sequential/conv2d_1/BiasAdd/ReadVariableOp f4 [32]
0	0xbe1f4800	-0.1555481
1	0xbe483779	-0.19552411
2	0x3d9a7e7f	0.075436585
3	0x3c9690c2	0.018379573
4	0xbd661219	-0.056169603
5	0xbe8e4424	-0.27786362
6	0xbdf3756a	-0.11887629
7	0xbd6ac164	-0.057313338
8	0xbda684aa	-0.081307724
9	0xbe23d9c7	-0.16001044
10	0xbc843894	-0.01614026
11	0xbb8eaf4d	-0.0043543936
12	0xbc8d46bf	-0.017245648
13	0x3ed71bbc	0.42013347
14	0x3e1dc308	0.1540643
15	0xbe394c45	-0.18095501
16	0xbe415d43	-0.18883233
17	0xbd9d0a16	-0.07667939
18	0x3bdb052d	0.0066839666
19	0x3e0de4fb	0.1385688
20	0x3cd33630	0.025782675
21	0x3cd01099	0.02539854
22	0xbd68facc	-0.056879804
23	0xbdc8276f	-0.09773146
24	0x3edc2bc8	0.43002152
25	0xbe7b957b	-0.24568741
26	0xbd528aa7	-0.05140176
27	0x3e86e6ba	0.26347905
28	0xbe8458d9	-0.25849035
29	0xbe7de40e	-0.24794027
30	0x3ae4bab1	0.0017450658
31	0x3d5b5076	0.05354353

sequential/conv2d_2/BiasAdd/ReadVariableOp f4 [64]
0	0xbd78536b	-0.06062643
1	0x3d0e4f84	0.0347438
2	0xbc9718f1	-0.01844451
3	0xbdb17f80	-0.08666897
4	0xbcf333ab	-0.029687723
5	0x3d0fee0b	0.035139125
6	0x3c8e3733	0.017360305
7	0x3ccc7027	0.024955822
8	0xbdce5bb0	-0.10076082
9	0xbe5ea7af	-0.21743654
10	0xbcad7382	-0.021173242
11	0x3d5aee9b	0.05345021
12	0xbdc60f93	-0.09670939
13	0x3cf716d4	0.030162252
14	0x3ba5d9c6	0.005061361
15	0xbd94cc6b	-0.07265552
16	0x3d6d40ba	0.057923056
17	0xbd6e45b9	-0.05817196
18	0x3d5d5361	0.054034594
19	0x3af46294	0.0018645101
20	0xbd548e03	-0.051893245
21	0xbe0e0a23	-0.13871054
22	0x3b459f04	0.0030154595
23	0x3d385a62	0.04500807
24	0x3c3e592f	0.011617943
25	0x3d307b56	0.043086372
26	0xbc2c1866	-0.010503864
27	0xbdd04b9b	-0.101706706
28	0x3df68c70	0.12038505
29	0x3d3b1063	0.045669924
30	0xbd185abd	-0.03719591
31	0xbb6903f8	-0.0035555344
32	0xbcf9f556	-0.030512493
33	0xbc1acbd5	-0.009448011
34	0x3c962550	0.018328339
35	0xbde6f2fc	-0.11276814
36	0xbd6ab18f	-0.05729824
37	0xbde1c183	-0.110232376
38	0xbcd6f7b0	-0.026241153
39	0x3ef03f69	0.46923378
40	0x3bea189c	0.007144047
41	0xbd9f8c81	-0.07790471
42	0xbd8942f8	-0.067022264
43	0x3dcb6f81	0.09933377
44	0xbd209096	-0.039200388
45	0xbd96477d	-0.07337854
46	0x3cc1c406	0.023653042
47	0xbc9234cf	-0.017847447
48	0x3c93f470	0.018060893
49	0xbe1d3694	-0.15352851
50	0xbc21c236	-0.009872964
51	0x3dd6b3f0	0.10483539
52	0xbd530037	-0.051513877
53	0x3c1e1dae	0.009650631
54	0x3d0a9563	0.033833873
55	0x3ac8af1a	0.0015310973
56	0x3cb386dc	0.021914892
57	0x3c87ddeb	0.01658531
58	0x3ee43962	0.4457503
59	0xbd9722b3	-0.07379665
60	0xbe3e4590	-0.18581223
61	0x3dbb8a14	0.09157196
62	0x3da9a429	0.08283264
63	0xbd087b14	-0.0333205

sequential/conv2d_3/BiasAdd/ReadVariableOp f4 [128]
0	0xbd7d1430	-0.06178683
1	0xbd02ed47	-0.031964567
2	0xbd175c16	-0.036953054
3	0xbc2f87a3	-0.010713491
4	0xbd9f92ef	-0.07791697
5	0xbd539d4a	-0.051663674
6	0xbc7c903e	-0.015415249
7	0x3db4b979	0.088244386
8	0xbc3dde68	-0.01158867
9	0x3c715f4e	0.014732195
10	0x3d175358	0.036944717
11	0x3da5a7ff	0.08088683
12	0x3d5509af	0.052011188
13	0x3da04af7	0.078267984
14	0x3ce6633a	0.028123487
15	0x3dca0093	0.09863391
16	0xbb4dbe08	-0.0031393785
17	0x3d93c4a2	0.07215239
18	0xbc02f5b6	-0.007993152
19	0x39c0b060	0.00036752503
20	0xbcb355c4	-0.021891482
21	0xbccfa663	-0.025347894
22	0xbc909cb7	-0.017652852
23	0xbc79e67a	-0.015252704
24	0x3d66be72	0.056333967
25	0xbde2deeb	-0.110776745
26	0xbcbe61a6	-0.023239922
27	0x3d6cb570	0.05779022
28	0xbb57d668	-0.0032934193
29	0xbe19f417	-0.15034519
30	0x3c27ccaa	0.010241667
31	0xbdf23c3d	-0.11827896
32	0xbd7f1edd	-0.062285293
33	0xba7e5ae3	-0.0009702874
34	0x3c9b9d5f	0.018995939
35	0xbcc30025	-0.02380378
36	0x3ab75166	0.0013986051
37	0xbd913ab5	-0.070912756
38	0xbc489e9b	-0.012244846
39	0xba45f659	-0.0007551662
40	0xbdc67ccc	-0.09691772
41	0xbe013b9f	-0.126204
42	0xbd2e1e2b	-0.04250924
43	0xbbf89645	-0.007586273
44	0x3d4f1a58	0.050562233
45	0xbc3a6918	-0.011377595
46	0xbb955f39	-0.0045584706
47	0xbd73a1a3	-0.05948032
48	0xbcfcefac	-0.030876003
49	0x3d24af57	0.04020628
50	0x3be2633c	0.0069088023
51	0x3c752636	0.0149627235
52	0x3d5bc5ca	0.053655423
53	0xbd78c72b	-0.060736816
54	0xbc5fec68	-0.0136672035
55	0xbd1b2403	-0.03787614
56	0xbcc8f5a0	-0.024531186
57	0xbde4be8a	-0.11169155
58	0xbd39bfb0	-0.045348823
59	0xbcbde3a8	-0.023179844
60	0xbc801478	-0.01563476
61	0xbc8caad1	-0.017171295
62	0xbc92d98a	-0.017925996
63	0x3ce52d28	0.027975634
64	0x3df1bb92	0.11803354
65	0xbc23bb95	-0.0099934535
66	0xbd0a6c0c	-0.033794448
67	0x3c812132	0.0157629
68	0x3debca0e	0.11513148
69	0xbd9688b4	-0.07350293
70	0xbd84fa0d	-0.06493006
71	0x3de66c32	0.11251105
72	0xbd71c944	-0.059029832
73	0xbd5f7e5d	-0.05456387
74	0x3d607a1e	0.05480396
75	0xbd1b8b49	-0.03797463
76	0xbca1de00	-0.019759178
77	0x3cfac753	0.030612623
78	0x3d38f0fb	0.045151692
79	0x3df49fef	0.119445674
80	0x3ca52fcb	0.020164391
81	0x3c2f17ec	0.010686856
82	0x3c90918e	0.01764753
83	0x3d7a9c5d	0.061184276
84	0xbd0fc957	-0.035104122
85	0x3b59d482	0.0033238237
86	0x3d7423e1	0.05960453
87	0x3cd6ccdd	0.026220733
88	0xbcf38302	-0.029725555
89	0xbda8f5aa	-0.08249982
90	0x3d416659	0.047216747
91	0x3d963490	0.07334244
92	0xbc396bc0	-0.0113171935
93	0xbbba4234	-0.0056841616
94	0xbdcceb42	-0.10005809
95	0xbd0f994f	-0.035058316
96	0x3c4b07bb	0.01239198
97	0xbca4f6c8	-0.020137206
98	0xbb756567	-0.0037444474
99	0xbdc609e6	-0.09669857
100	0x3cc24209	0.023713129
101	0xbabe9638	-0.0014540618
102	0xbcc9015f	-0.024536787
103	0x3c3f6644	0.011682097
104	0xbd0fae97	-0.03507861
105	0x3d5087d3	0.050910782
106	0x3ba10c21	0.004914776
107	0xbd984a93	-0.07436099
108	0xbd85c7ce	-0.0653225
109	0x3d09189b	0.03347073
110	0xbcec0153	-0.028809225
111	0xbe049962	-0.12949136
112	0xbdbd1d06	-0.092340514
113	0xbcfd04d0	-0.030886084
114	0xbd77702a	-0.060409702
115	0x3ceb6d6e	0.028738704
116	0x3c2d1b17	0.010565541
117	0xbd50874a	-0.05091027
118	0xbda8a1c3	-0.082339786
119	0xbd058d5c	-0.032605514
120	0xbc9fd0fc	-0.019508831
121	0xbcd25dae	-0.025679436
122	0x3a9e2109	0.0012064289
123	0xbb77882a	-0.003777037
124	0x3d918aca	0.0710655
125	0xbd06e6cf	-0.03293496
126	0x3c7c959a	0.015416527
127	0xbd1bc3eb	-0.03802864

sequential/conv2d/Conv2D f4 [16, 2, 2, 1]
0	0xbe3444a3	-0.17604308
1	0x3e34df2c	0.17663258
2	0xbe679d5c	-0.22618622
3	0x3e6dc09f	0.2321801
4	0xbe31cedc	-0.17364067
5	0x3e006981	0.12540247
6	0xbe96eec3	-0.29479036
7	0xbdc911ee	-0.09817873
8	0xbd697eb2	-0.05700559
9	0x3d13b0dd	0.03605734
10	0xbeb311a5	-0.349744
11	0xbe588b73	-0.21146946
12	0xbe4d8cd4	-0.20073253
13	0x3da12fb3	0.07870426
14	0xbdcdb3cd	-0.1004406
15	0x3e76c91e	0.24100158
16	0x3e7d7f38	0.24755561
17	0x3dcbd999	0.09953613
18	0x3e52da98	0.205912
19	0x3e87c076	0.26514024
20	0xbe02f92a	-0.12790361
21	0x3e40fd48	0.18846619
22	0x3e8d95ef	0.27653453
23	0x3e06651d	0.13124509
24	0x3d2a85be	0.041631453
25	0x3dd1de6d	0.102475025
26	0x3e52fd39	0.2060441
27	0x3e5a8295	0.21338876
28	0xbe897125	-0.26844135
29	0x3e8bf32f	0.27333972
30	0xbdc2e39f	-0.095160715
31	0x3ddc2524	0.107492715
32	0x3d7af448	0.06126812
33	0x3d451e07	0.04812434
34	0x3d33ff1c	0.043944463
35	0x3e8ab253	0.27089176
36	0x3d4b9252	0.04970009
37	0x3e81395f	0.25239083
38	0xbd85399f	-0.06505131
39	0xbe817e34	-0.25291598
40	0xbe8a71d2	-0.27039963
41	0xbd3c2847	-0.04593685
42	0xbe62f65f	-0.22164296
43	0xbe9c598c	-0.3053707
44	0x3dffb80a	0.124862745
45	0xbe3ed534	-0.18636018
46	0xbd9d2145	-0.07672361
47	0x3e782c74	0.24235708
48	0x3d7af7e7	0.061271574
49	0x3dd1ff73	0.10253801
50	0xbe847ba8	-0.25875592
51	0xbe053bca	-0.13011089
52	0xbe3c1668	-0.18367922
53	0xbe44e910	-0.19229531
54	0xbe6f4180	-0.2336483
55	0xbdfa34a1	-0.122170694
56	0x3daff12c	0.08590922
57	0xbdb4c108	-0.0882588
58	0xbe937fba	-0.28808385
59	0x3e95b501	0.29239658
60	0xbe305976	-0.17221627
61	0x3e2fb7be	0.17159936
62	0xbe2a61ec	-0.16638917
63	0x3e282d0d	0.16423436

sequential/conv2d_1/Conv2D f4 [32, 2, 2, 16]
0	0x3e754e7b	0.23955719
1	0x3cc4ae42	0.024008874
2	0x3cbc823c	0.02301132
3	0x3c3bb2e3	0.011456224
4	0x3df799f9	0.12089915
5	0x3c6cb41d	0.014447239
6	0x3d8ea6d7	0.06965416
7	0x3e4be94f	0.19913219
8	0x3e05d843	0.13070779
9	0xbc4b6b3e	-0.012415705
10	0x3bce20e5	0.0062905424
11	0xbd9c16da	-0.07621546
12	0xbcf61f5d	-0.030044252
13	0xbdd70a87	-0.10500055
14	0xbe2dc7fd	-0.1697082
15	0x3e17b37f	0.14814566
16	0x3e0e8bf9	0.13920583
17	0x3d8e8d51	0.06960548
18	0x3e2dc0a1	0.16968013
19	0x3d16baaf	0.03679913
20	0xbcc1433b	-0.023591628
21	0x3c0aa22a	0.0084615145
22	0x3e088156	0.13330588
23	0xbddfc643	-0.10926487
24	0x3e0129b6	0.12613568
25	0x3e0bd3da	0.13655034
26	0xbe6576c3	-0.22408585
27	0xbd4dcb07	-0.05024245
28	0x3e0a3089	0.13495077
29	0xbe088588	-0.13332188
30	0x3de9783c	0.11399886
31	0x3e1b612f	0.15173791
32	0x3d6fa7c8	0.058509618
33	0xbe5f30a6	-0.21795902
34	0xbd4d3861	-0.050102595
35	0xbc714a13	-0.014727133
36	0xbe174b57	-0.14774834
37	0x3d1e7e64	0.038694754
38	0x3df49355	0.11942164
39	0xbd367837	-0.04454824
40	0x3bb31f2f	0.005466364
41	0x3db76628	0.08955032
42	0x3d59cff4	0.053176835
43	0x3dafbe32	0.08581199
44	0xbdfbe04c	-0.122986406
45	0xbd751e2e	-0.059843235
46	0xbd87b360	-0.0662601
47	0xbdf352d4	-0.118810326
48	0xbdbeaa70	-0.09309852
49	0xbdf81c17	-0.12114733
50	0xbe2684a2	-0.16261533
51	0xbd7959b4	-0.060876563
52	0xbc97f2f3	-0.018548464
53	0xbe08e101	-0.13367082
54	0xbc43dda6	-0.011954701
55	0xbc39a138	-0.011329941
56	0x3daf7482	0.08567144
57	0x3d164a98	0.036692232
58	0x3c11d747	0.008901424
59	0x3dce5d48	0.10076386
60	0xbd9f46b1	-0.07777155
61	0xbd3e4b7a	-0.0464587
62	0xbd01dc09	-0.031703983
63	0x3dd70353	0.10498681
64	0xbd1857dc	-0.037193164
65	0xbc90858b	-0.017641803
66	0xbe0becd0	-0.13664556
67	0xbd4e9a4c	-0.050440118
68	0x3d7b9d8d	0.06142955
69	0xbd4b70c1	-0.049668077
70	0x3e27b5e3	0.16377978
71	0x3e34f79d	0.17672582
72	0x3e061b2d	0.13096304
73	0xbe103c7f	-0.14085577
74	0xbdc82d7b	-0.097743
75	0xbce13203	-0.027489668
76	0xbe01d710	-0.12679696
77	0x3e3c7bd0	0.18406606
78	0x3e33a598	0.17543638
79	0x3ccd3961	0.025051774
80	0xbd26c27e	-0.040712826
81	0xbe90d563	-0.282878
82	0xbe36a80b	-0.17837541
83	0xbce9e19b	-0.02854996
84	0xbcf7adc9	-0.030234234
85	0x3e0a41db	0.13501684
86	0x3d9dc004	0.0770264
87	0x3d1d32fc	0.0383787
88	0x3dd25cab	0.10271581
89	0xbd9a35c1	-0.07529784
90	0x3d0e94d7	0.034809913
91	0xbd0fd7c8	-0.035117894
92	0xbdb6ff2b	-0.08935388
93	0xbd1510fb	-0.036393147
94	0x3e1b43f0	0.15162635
95	0x3d99b8d2	0.07505955
96	0xbcd5c6a3	-0.026095694
97	0x3d40b718	0.04704961
98	0x3d9b8ed0	0.07595599
99	0x3d0f807c	0.03503464
100	0x3dde6c64	0.108605176
101	0xbb993031	-0.0046749343
102	0x3d4fc754	0.050727203
103	0x3e2ef842	0.1708689
104	0xbccea906	-0.025227081
105	0xbd87f7ec	-0.06639084
106	0x3e26fe25	0.16307886
107	0xbe2be443	-0.16786294
108	0x3e3237d7	0.17404114
109	0x3e4c3970	0.19943786
110	0xbdad29f8	-0.084552705
111	0x3d64a570	0.055821836
112	0x3d99e6ef	0.0751475
113	0x3c84270b	0.016131898
114	0xbd1443e7	-0.03619757
115	0xbd4624ea	-0.048375048
116	0xbd3992c2	-0.045305975
117	0xbd93466e	-0.07191168
118	0x3d54fe51	0.052000348
119	0x3dcb8195	0.09936825
120	0xbc862ef4	-0.01637981
121	0xbca281da	-0.019837309
122	0xbcdfac97	-0.027303977
123	0xbe585c68	-0.21129
124	0x3c27ba71	0.010237322
125	0x3c5748e5	0.013139938
126	0x3ccc6306	0.024949562
127	0x3e5d2d1b	0.21599238
128	0x3c1c4fe3	0.009540531
129	0xbe42d693	-0.19027166
130	0xbdd5213d	-0.1040673
131	0xbd8bcf98	-0.06826705
132	0x3e9697ff	0.2941284
133	0x3da23d2d	0.079218246
134	0x3e08edc0	0.13371944
135	0xbda1a52f	-0.078928344
136	0x3e7feb3d	0.2499208
137	0x3d02298b	0.0317779
138	0xbe9d7596	-0.30753773
139	0xbd68d4eb	-0.05684368
140	0xbe427ee3	-0.18993716
141	0xbe686297	-0.22693859
142	0xbbbcdb2f	-0.0057634334
143	0x3b856832	0.004071259
144	0xbe6f2e0b	-0.23357408
145	0xbe811585	-0.2521173
146	0xbdba3c4d	-0.09093533
147	0xbe2d7b3d	-0.16941543
148	0x3daa3941	0.083117016
149	0x3c94d5be	0.018168326
150	0x3e109f41	0.1412325
151	0xbd4d8176	-0.05017229
152	0xbd0bd6e6	-0.03414049
153	0xbdbea56d	-0.09308896
154	0xbe232867	-0.15933381
155	0x3c3372e5	0.010952686
156	0xbdb1e1c4	-0.086856395
157	0xbe67bf7c	-0.22631639
158	0xbd88d2d9	-0.06680841
159	0xbe997b87	-0.29977056
160	0xbe136724	-0.14394814
161	0xbe2d2ade	-0.16910884
162	0xbe3e3933	-0.18576507
163	0xbe2aa83e	-0.16665742
164	0x3e208aec	0.15677994
165	0x3dbe610a	0.092958525
166	0xbdaa2992	-0.0830871
167	0xbe2bdc68	-0.16783297
168	0xbda2cafc	-0.079488724
169	0xbd562628	-0.052282482
170	0xbe8b2899	-0.2717941
171	0xbc93911c	-0.01801353
172	0xbe13e9b5	-0.14444621
173	0xbea1758b	-0.3153499
174	0x3d38efd3	0.04515059
175	0x3cc01e6b	0.023452004
176	0xbe391afa	-0.18076697
177	0x3d107a3a	0.035272814
178	0xbd427a3c	-0.047479853
179	0x3d4bb89f	0.049736615
180	0x3dc15a14	0.09441009
181	0xbd53bb9d	-0.051692594
182	0x3cdbfa90	0.026852876
183	0xbc641293	-0.013920444
184	0x3d641c68	0.055691153
185	0x3df5cba3	0.12001731
186	0xbe7aa1f6	-0.24475846
187	0xbdf85688	-0.121258795
188	0x3de102a3	0.10986831
189	0xbebdb02b	-0.37048468
190	0xbde37fa2	-0.111083284
191	0xbe3ac8d4	-0.18240672
192	0xbdd3cda2	-0.10341956
193	0x3da8bbee	0.0823897
194	0xbd9b9991	-0.0759765
195	0xbc5b0f5c	-0.013370361
196	0x3dcebcde	0.10094617
197	0xbd2bbb34	-0.041926578
198	0x3e2b61ca	0.16736522
199	0xbe0dc45b	-0.13844435
200	0x3d9bfda4	0.076167375
201	0x3d3c0845	0.045906324
202	0xbdd779b4	-0.1052126
203	0xbda05e32	-0.07830466
204	0xbd945f4d	-0.0724474
205	0xbe4f93ec	-0.20271271
206	0xbd9b7c24	-0.07592037
207	0xbdbede13	-0.09319701
208	0xbdca0522	-0.0986426
209	0x3cb3fa5e	0.02196997
210	0x3de21c9c	0.11040613
211	0xbe4213aa	-0.18952814
212	0x3cae9cd7	0.021315021
213	0x3d75e1b4	0.0600297
214	0xbdd5b443	-0.10434773
215	0xbaf1ab3a	-0.001843787
216	0x3e16a727	0.14712201
217	0x3c96ea55	0.018422285
218	0xbd13e01d	-0.036102403
219	0x3ccc601d	0.024948174
220	0xbc7354ff	-0.014851808
221	0xbe779d14	-0.24181014
222	0xbce95616	-0.028483432
223	0x3d8867d6	0.0666043
224	0xbe9424f6	-0.2893445
225	0xbdc41836	-0.0957493
226	0x3da5ad9e	0.080897555
227	0x3e52a4c8	0.20570672
228	0xbd6b9f4e	-0.05752497
229	0x3e2f9f9e	0.17150733
230	0x3e0c3342	0.13691428
231	0xbdb72d03	-0.08944132
232	0xbdd7f7a8	-0.105452836
233	0x3da7437b	0.08167168
234	0xbc2fb0e7	-0.010723329
235	0x3e07a60d	0.13246937
236	0x3e5c80cb	0.21533506
237	0xbde63056	-0.11239688
238	0xbe8886f8	-0.26665473
239	0xbe6cc2ca	-0.23121181
240	0xbe218ce0	-0.15776396
241	0x3d81b31b	0.0633299
242	0x3de3e5bf	0.11127805
243	0xbd33a82f	-0.043861564
244	0xbdc26b5c	-0.094931334
245	0x3d431dcc	0.04763584
246	0x3c9dd3ff	0.019266127
247	0xbdf3a28f	-0.1189624
248	0xbd8d6de9	-0.06905729
249	0x3e724e2c	0.23662633
250	0xbdbd9779	-0.09257407
251	0x3d02a54c	0.03189592
252	0x3e0ef7ad	0.13961668
253	0xbe660042	-0.22461036
254	0xbde3c823	-0.111221574
255	0xbdde2d87	-0.108485274

sequential/conv2d_2/Conv2D f4 [64, 2, 2, 32]
0	0xbd4245e1	-0.047429923
1	0xbdfaa0aa	-0.122376755
2	0xbe46abae	-0.19401428
3	0x3d4608e5	0.048348326
4	0xbda9452a	-0.08265145
5	0x3ce707ab	0.028201899
6	0x3d8a13d7	0.067420654
7	0x3d7ab032	0.06120319
8	0x3e2b0f33	0.16705017
9	0xbc988670	-0.018618792
10	0xbb8fdae2	-0.0043901065
11	0xbd281d2e	-0.041043453
12	0xbd64fbb2	-0.055904098
13	0xbdee3cc3	-0.11632683
14	0xbd91babb	-0.07115694
15	0xbcf6e288	-0.030137315
16	0xbd362441	-0.04446817
17	0xbdf44336	-0.11926882
18	0x3cdcb413	0.026941335
19	0xbdcfd46c	-0.10147938
20	0x3d043aa0	0.03228247
21	0xbca7caba	-0.02048241
22	0x3d0a9f24	0.033843175
23	0x3c24baa8	0.010054268
24	0xbe08a6f6	-0.1334494
25	0x3dce05ce	0.10059701
26	0xbc8cff2d	-0.017211521
27	0xbdb32006	-0.08746342
28	0xbe299760	-0.16561651
29	0xbd52b7c0	-0.05144477
30	0x3da5d384	0.08096984
31	0x3dd1e6db	0.1024911
32	0xbc9da049	-0.019241469
33	0x3db19825	0.086715974
34	0xbdca4d73	-0.098780535
35	0xbde0fe0d	-0.10985956
36	0xbccf950c	-0.025339626
37	0xbdcfc7d7	-0.10145538
38	0xbdab2be6	-0.08357982
39	0x3dc17427	0.094459824
40	0x3d0ca08b	0.034332793
41	0x3da15a5e	0.07878564
42	0x3d3b271a	0.045691587
43	0xbdc821c6	-0.09772067
44	0x3bc464cc	0.0059934612
45	0xbd9bcc35	-0.07607309
46	0x3d069806	0.032859825
47	0x3d8f94bc	0.07010791
48	0x3d5df538	0.054188937
49	0x3d2a7eee	0.041624956
50	0x3c286908	0.010278948
51	0xbce9cf31	-0.02854118
52	0xbcb9ecb1	-0.022695871
53	0x3db26aeb	0.08711799
54	0xbdde517c	-0.10855386
55	0xbc7cc1ff	-0.015427112
56	0x3d3f5987	0.04671624
57	0x3d96b5b3	0.07358875
58	0x3acd9c0b	0.0015686763
59	0xbd4e0ed7	-0.05030712
60	0xbce19bde	-0.027540144
61	0xbd63b1e9	-0.05558959
62	0x3d410cc4	0.047131315
63	0xbd47dfe8	-0.048797518
64	0x3d7d76a3	0.06188072
65	0x3c9547b6	0.018222671
66	0x3daa924a	0.08328684
67	0xbcc64ac5	-0.024205575
68	0x3d285623	0.04109777
69	0x3e16591a	0.14682427
70	0x3cedfcfe	0.0290513
71	0x3c9bbae2	0.019010011
72	0x3e1a9476	0.15095696
73	0x3deaaca6	0.11458711
74	0x3d994189	0.07483203
75	0xbdc56394	-0.09638134
76	0x3bd2e150	0.0064355507
77	0xbe1c3011	-0.15252711
78	0x3e449968	0.19199145
79	0xbd8a7d84	-0.067622215
80	0x3dcf84c0	0.10132742
81	0x3b70e816	0.0036759428
82	0xbd5e95bd	-0.05434202
83	0xbe1774f5	-0.1479071
84	0x3cf3f5e5	0.029780338
85	0xbdd57b3c	-0.10423896
86	0xbddb9b2d	-0.10722957
87	0x3cc465ff	0.023974417
88	0x3dcfc709	0.10145385
89	0xbdd0b583	-0.101908706
90	0xbdd1ef36	-0.10250704
91	0x3d24cf8d	0.040237
92	0x3e04db9c	0.129744
93	0x3db36d7c	0.08761117
94	0xbc95ff38	-0.018310174
95	0x3c9014f0	0.017588109
96	0x3d72020c	0.059083983
97	0x3e037748	0.12838471
98	0xbc6413c3	-0.013920727
99	0xbd55bfc4	-0.052184835
100	0xbd1d1aa6	-0.038355492
101	0xbb9a9f20	-0.004718676
102	0xbe0b665c	-0.13613266
103	0xbd28b53b	-0.04118846
104	0x3d77a2b9	0.06045792
105	0x3e05b073	0.13055591
106	0xbdc9a766	-0.09846382
107	0xbdad7f85	-0.08471588
108	0x3cc964cf	0.024584202
109	0xbe263bb1	-0.16233708
110	0x3e05179c	0.12997288
111	0xbdd31d87	-0.10308366
112	0xbde811ef	-0.113315456
113	0xbc4c3bab	-0.012465398
114	0xbe2c8dc9	-0.16850962
115	0xbd691480	-0.056904316
116	0xbe30b5c2	-0.17256835
117	0x3d295318	0.04133901
118	0x3d656452	0.056003876
119	0xbd003a47	-0.031305578
120	0xbd84a5ca	-0.06476934
121	0xbd973e11	-0.07384885
122	0xbe455f64	-0.1927467
123	0x3be74127	0.0070573273
124	0x3c5ba8ad	0.013406915
125	0x3dd8fbc4	0.105948955
126	0x3d029de2	0.03188885
127	0x3e46d08c	0.19415492
128	0xbe32ce88	-0.17461598
129	0xbdcff554	-0.101542145
130	0x3de136e0	0.10996795
131	0x3ca7c283	0.020478493
132	0xbc742a49	-0.01490266
133	0x3bfd73da	0.007734758
134	0x3d1f728b	0.038927596
135	0x3ca4d2ef	0.020120112
136	0xbdc26572	-0.094920054
137	0x3d983f21	0.07433916
138	0xbdf488cb	-0.11940154
139	0x3dce9ee2	0.10088898
140	0x3d9758ef	0.073900096
141	0xbdabf06a	-0.08395465
142	0x3da287f5	0.07936088
143	0xbd139432	-0.036030002
144	0x3bbc5cd7	0.005748372
145	0x3d8bda8c	0.06828794
146	0xbdcbadd4	-0.099452645
147	0xbba0a312	-0.004902252
148	0x3d12d4d9	0.03584752
149	0xbe3fbd3f	-0.18724535
150	0x3ce19eac	0.027541481
151	0xbdd75d6e	-0.10515867
152	0x3d3e7dbc	0.04650663
153	0xbe0d83d0	-0.13819814
154	0x3dea4e9c	0.11440775
155	0x3e055de4	0.13024098
156	0xbc801e6a	-0.015639503
157	0xbd86335b	-0.06552764
158	0x3d878516	0.06617181
159	0x3d8d84eb	0.06910118
160	0xbc64be17	-0.013961337
161	0xbd6d5348	-0.05794075
162	0x3d3439ea	0.044000544
163	0xbc3f83b3	-0.011689114
164	0xbd74fe0f	-0.0598126
165	0x3bd1b48f	0.006399698
166	0xbdea6d57	-0.11446636
167	0xbcd04a85	-0.025426159
168	0xbdca5a86	-0.09880547
169	0x3d9b80d8	0.07592934
170	0x3cac78bd	0.021053666
171	0xbae25f34	-0.0017270804
172	0xbd754b3e	-0.05988621
173	0xbdbfbfd3	-0.093627594
174	0xbd6b3462	-0.057423003
175	0x3e01c5b4	0.12673074
176	0xbd4f2184	-0.050569072
177	0x3d4530cb	0.048142236
178	0xbab61258	-0.0013890965
179	0x3bdef6e1	0.0068043326
180	0x3d330e0a	0.04371456
181	0xbe05aafa	-0.13053504
182	0x3d4e9da3	0.050443303
183	0xbdcce1bf	-0.10003995
184	0x3dae8734	0.08521882
185	0xbc1498e3	-0.009069654
186	0x3da5acba	0.080895856
187	0x3b4a3104	0.003085197
188	0xbd6ccb6d	-0.05781119
189	0xbe0dd332	-0.13850096
190	0xbcb44c91	-0.022009166
191	0x3dab1eb0	0.083554626
192	0xbd49f19d	-0.049302686
193	0xbd8ffa84	-0.07030204
194	0x3da6a578	0.081370294
195	0xbd805c94	-0.06267658
196	0x3dd58662	0.10426022
197	0xbcf3c3dc	-0.029756479
198	0x3bc40313	0.005981812
199	0x3da4ebd1	0.08052791
200	0x3e1de564	0.15419537
201	0xbdbd85a0	-0.092540026
202	0xbd8c17b3	-0.06840458
203	0x3c217cc4	0.009856407
204	0xbd165a0b	-0.036706965
205	0xbdd5dc15	-0.10442368
206	0x3d90cb9e	0.07070087
207	0x3dd76eeb	0.10519203
208	0x3d545f9c	0.051848993
209	0xbbfd2c19	-0.007726204
210	0x3c4d4c36	0.012530377
211	0x3dfda44b	0.12384852
212	0xbd44303d	-0.047897566
213	0x3e0b1398	0.13581693
214	0x3c83a7be	0.016071197
215	0x3d7517f3	0.059837293
216	0xbbc195e6	-0.005907762
217	0xbda49f9e	-0.08038257
218	0xbd70e93b	-0.058816176
219	0xbd39d8c4	-0.04537274
220	0xbd1ff931	-0.039056007
221	0xbe10a359	-0.14124812
222	0x3d4b35ef	0.049611982
223	0xbc3b78e1	-0.011442394
224	0x3dac86cd	0.08424149
225	0xbe0417b5	-0.12899669
226	0x3df746c9	0.12074048
227	0xbdee1070	-0.11624229
228	0xbbe7fb28	-0.0070795007
229	0xbd8a2de8	-0.06747037
230	0xbe201f5b	-0.15636961
231	0xbc7f199a	-0.015570069
232	0x3d48b8b5	0.049004275
233	0xbdf04e5b	-0.11733695
234	0xbdd1e59e	-0.10248874
235	0xbdabfe63	-0.0839813
236	0xbdcd7650	-0.10032332
237	0xbcc9d0ca	-0.024635691
238	0x3c2ef04e	0.01067741
239	0x3dfed07b	0.12442108
240	0xbdc6e12e	-0.09710918
241	0x3db1d06d	0.08682332
242	0x3d663722	0.056204922
243	0x3e4e314c	0.20135993
244	0x3da29671	0.07938851
245	0x3dcdb647	0.10044532
246	0x3d727132	0.059189983
247	0x3cd4f5dd	0.025996143
248	0x3d49bf58	0.049254745
249	0x3caf9cf9	0.021437155
250	0xbd968b9e	-0.073508486
251	0x3d9ee0fd	0.07757757
252	0xbd9745eb	-0.07386383
253	0xbe062e45	-0.13103588
254	0x3dc5d654	0.096600205
255	0x3d7567f4	0.05991359

sequential/conv2d_3/Conv2D f4 [128, 2, 2, 64]
0	0xbbcfc884	-0.006341042
1	0xbd479e9d	-0.04873525
2	0xbcde7cdb	-0.027159145
3	0x3d427d5a	0.047482826
4	0x3b05ff80	0.002044648
5	0x3da88e73	0.08230295
6	0x3d9f32f9	0.07773394
7	0x3d2c5c13	0.042079996
8	0x3c9eaaf5	0.019368628
9	0xbc99a915	-0.018757382
10	0x3cf2df6e	0.029647555
11	0x3b757909	0.0037456176
12	0x3c80f8d1	0.015743645
13	0x3d80ca91	0.062886365
14	0xbdd7a68e	-0.10529815
15	0xbd91e968	-0.07124597
16	0xbd90ed1c	-0.07076475
17	0x3b328c37	0.002724422
18	0x3b8856ee	0.0041607535
19	0x3d295e9e	0.04135
20	0x3d808035	0.062744536
21	0xbd7b632a	-0.061373867
22	0x3d95f3b6	0.07321875
23	0x3ce0674d	0.027393008
24	0xbd44f1c8	-0.048082143
25	0x3b9463dd	0.004528506
26	0x3d8ba628	0.06818801
27	0x3d1b4087	0.037903335
28	0xbd01ee9e	-0.031721704
29	0x3d8317eb	0.06401046
30	0xbc9058e9	-0.01762052
31	0xbd3db9c4	-0.046319738
32	0xbd664023	-0.05621351
33	0x3d421b7e	0.0473895
34	0x3c9ae982	0.018910173
35	0xbc3938f1	-0.01130508
36	0x3d8f7d71	0.07006348
37	0x3d5c17fe	0.05373382
38	0xbd9fd82d	-0.07804904
39	0xbd97987d	-0.07402132
40	0x3d8e7c4d	0.06957302
41	0x3d0e0637	0.034673896
42	0xbbf82cb4	-0.0075736884
43	0x3d0f5558	0.0349935
44	0x3aac5e8e	0.0013150738
45	0xbcf981d3	-0.030457413
46	0x3da53098	0.08065909
47	0xbde1e92f	-0.11030804
48	0x3a8e1004	0.0010838513
49	0xbd8bde07	-0.06829458
50	0xbdf51414	-0.1196672
51	0x3d6ed4b0	0.058308303
52	0xbcdf4b95	-0.02725772
53	0xbc6cfd38	-0.014464669
54	0x3d784e49	0.060621534
55	0xbd30c299	-0.043154333
56	0x3d49844a	0.049198426
57	0x3d04e035	0.032440383
58	0xbd825e75	-0.063656725
59	0xbc9304cc	-0.017946623
60	0x3d5f144b	0.054462712
61	0x3db74a37	0.08949702
62	0xbddfd962	-0.10930134
63	0x3ce226d2	0.027606402
64	0xbd8238de	-0.06358503
65	0xbd6cd10c	-0.05781655
66	0xbd2220aa	-0.039581932
67	0xbbf9ce84	-0.0076234955
68	0xbd6c7b7d	-0.057734955
69	0x3cfc5ef2	0.030806992
70	0x3d88b788	0.06675631
71	0x3d5dd993	0.054162573
72	0xbd89a667	-0.06721192
73	0xbd6e9dde	-0.058256023
74	0xbd941e3a	-0.07232328
75	0x3cf121a7	0.029434992
76	0x3ca5ef57	0.020255728
77	0x3d2712df	0.04078948
78	0xbdd36481	-0.10321904
79	0xbd6e1b43	-0.058131468
80	0x3cbbc5cf	0.02292147
81	0x3dc6b195	0.0970184
82	0xbda0069e	-0.07813762
83	0xbce4d3a8	-0.027932957
84	0x3d8ca2d3	0.06866994
85	0xbdf957bf	-0.12174939
86	0x3d97ad6c	0.074061245
87	0x3d4a5e55	0.04940637
88	0xbbac448f	-0.0052571963
89	0x3d442edc	0.04789625
90	0xbcc1cbd6	-0.023656767
91	0xbca7d11c	-0.020485453
92	0x3cc4dc1e	0.024030741
93	0xbc34aa13	-0.011026877
94	0x3a722878	0.00092375977
95	0x3cf54b42	0.029943112
96	0xbb89b905	-0.0042029642
97	0x3da6140b	0.08109292
98	0xbd208c2c	-0.03919618
99	0xbc9d93fa	-0.0192356
100	0xbd6424b4	-0.055699065
101	0x3d236895	0.03989466
102	0x3b36c6a7	0.0027889402
103	0x3d3ddeaa	0.046354927
104	0xbb978c7a	-0.0046249004
105	0x3dc6c405	0.097053565
106	0x3d059436	0.032612048
107	0xbda4c45c	-0.08045265
108	0xbd0c3234	-0.034227565
109	0x3c93b8ef	0.01803252
110	0xbc37a5a8	-0.011208929
111	0xbdeae52b	-0.114694916
112	0x3dc003a8	0.093756974
113	0x3d216bec	0.039409563
114	0xbdcd4172	-0.10022248
115	0xbcf08ab0	-0.029363006
116	0xbda2d5f4	-0.079509646
117	0xbdee254a	-0.11628206
118	0x3dd2238c	0.10260686
119	0x3d9b00e1	0.07568527
120	0xbd27f35a	-0.041003563
121	0xbd3b2a54	-0.045694664
122	0x3cec3ba7	0.028837038
123	0xbc62636b	-0.013817648
124	0x3d97cf9b	0.074126445
125	0x3bf18bf0	0.007371418
126	0xbaf27302	-0.001849741
127	0xbcd2e731	-0.025745006
128	0x3d47fbc2	0.04882408
129	0x3d9bba38	0.07603878
130	0x3cac6a0b	0.021046659
131	0x3d6c826a	0.05774156
132	0xbd2782f6	-0.04089638
133	0xbdf42a12	-0.11922087
134	0xbbdc0218	-0.006714117
135	0xbcbf84a1	-0.023378672
136	0x3d8802e8	0.06641179
137	0xbda728dc	-0.0816209
138	0xbe0462fc	-0.12928385
139	0xbd78fd0d	-0.060788203
140	0x3d329dbb	0.043607455
141	0x3d60268e	0.05472427
142	0xbe32526e	-0.17414257
143	0x3d1e7869	0.03868905
144	0x3b92b6b2	0.0044773454
145	0xbce95244	-0.02848161
146	0x3cd5afa3	0.026084727
147	0x3da79290	0.081822515
148	0xbdab60b0	-0.08368051
149	0x3d4ae588	0.049535304
150	0xbd0847fd	-0.03327178
151	0xbbe966bb	-0.007122842
152	0x3c3856b3	0.011251139
153	0xbdcb62df	-0.099309675
154	0xbc359f9f	-0.01108542
155	0xbd7513a1	-0.059833173
156	0xbd5ab0b6	-0.05339118
157	0xbcc38622	-0.02386767
158	0xbd982d30	-0.07430494
159	0xbbe34f55	-0.0069369473
160	0x3d8b5822	0.068039194
161	0xbda33110	-0.07968342
162	0x3d93ad36	0.07210772
163	0x3d80a9fb	0.06282421
164	0xbdc5a1d7	-0.09650009
165	0x3da00477	0.078133516
166	0x3d564905	0.05231573
167	0xbd42a5e0	-0.047521472
168	0x3d80a84d	0.06282101
169	0xbc5c17d0	-0.013433412
170	0xbd337f50	-0.043822587
171	0xbc0ef76d	-0.008725983
172	0xbcd8acfe	-0.026449677
173	0x3d9dc814	0.077041775
174	0xbd599e55	-0.053129513
175	0x3d8bf649	0.068340845
176	0x3bd60658	0.006531518
177	0xbd521822	-0.051292546
178	0xbd772d14	-0.060345724
179	0xbd9a227b	-0.07526108
180	0xbd5c1b12	-0.053736754
181	0xbd8f5d2c	-0.07000193
182	0xbc70858c	-0.014680278
183	0x3c7d5517	0.0154621815
184	0xbd886438	-0.0665974
185	0xbc1977c3	-0.009366932
186	0xbe01c7d8	-0.1267389
187	0xbdda6fc1	-0.106658466
188	0xbc43f3e4	-0.0119600035
189	0x3bb6a470	0.0055738017
190	0xbe049917	-0.12949024
191	0xbd4cdf04	-0.05001737
192	0xbdd47aa6	-0.10374956
193	0xbca51a42	-0.020154122
194	0x3b43cda3	0.0029877208
195	0x3d8f88b4	0.07008496
196	0xbc8d1739	-0.017222987
197	0x3d941736	0.0723099
198	0xbdd3c257	-0.10339802
199	0xbcceb32d	-0.025231922
200	0x3d692902	0.056923874
201	0xbd7921fc	-0.060823426
202	0xbd87a660	-0.066235304
203	0xbe609058	-0.21930063
204	0x3a631b19	0.00086634007
205	0xbdb498e8	-0.08818227
206	0xbd865bc2	-0.0656047
207	0xbc3e00db	-0.011596884
208	0xbd671138	-0.056412905
209	0xbd75d05a	-0.060013153
210	0x3cc97b30	0.024594873
211	0x3cf87c32	0.030332658
212	0xbcfe7fe2	-0.031066839
213	0x3d703c8c	0.058651492
214	0xbd7ebde2	-0.062192805
215	0xbd21815c	-0.039430007
216	0xbd4774aa	-0.048695244
217	0xbe18fbf4	-0.14939862
218	0x3d0e4834	0.034736827
219	0x3d33098f	0.043710288
220	0x3cc8edae	0.024527397
221	0xbbb7ed6b	-0.005613019
222	0xbdd1a525	-0.10236577
223	0xbd84d7b0	-0.064864516
224	0xbd6d1e9d	-0.057890523
225	0xbca57c17	-0.020200772
226	0xbcf7b1d9	-0.030236172
227	0xbb6bc945	-0.003597812
228	0x3d072938	0.032998294
229	0xbb329317	-0.0027248317
230	0xbcd06053	-0.025436556
231	0xbda3d3e2	-0.07999398
232	0x3d49578b	0.049155753
233	0x3dcc85ac	0.099864334
234	0x3caa6e60	0.020804584
235	0xbdc2113e	-0.09475945
236	0x3cd0a250	0.025468022
237	0x3d9720b6	0.07379286
238	0xbdc19aef	-0.09453379
239	0xbce60e7d	-0.02808308
240	0x3ce3ce72	0.027808402
241	0x3d955cc1	0.07293082
242	0x3d12affc	0.035812363
243	0xbc733c2e	-0.014845891
244	0xbc39b750	-0.011335209
245	0xbdc0c29d	-0.094121195
246	0x3d37f08b	0.044907134
247	0x3d84c0c6	0.06482081
248	0xbd534eaa	-0.05158869
249	0xbb6be522	-0.0035994728
250	0xbdbcaba3	-0.092124246
251	0x3c289d35	0.010291387
252	0xbd6d4fd2	-0.05793745
253	0xbdd84655	-0.1056029
254	0xbdafddbf	-0.085872166
255	0xbdb02914	-0.08601585

sequential/dense/BiasAdd/ReadVariableOp f4 [10]
0	0xbc0a2ca8	-0.008433498
1	0x3d387296	0.045031153
2	0xbd33ddb5	-0.04391261
3	0x3d96a528	0.0735572
4	0x3da4aff6	0.080413744
5	0x3b326e78	0.002722649
6	0x3dbc5c08	0.09197241
7	0xbc8b941c	-0.017038397
8	0xbda86bd3	-0.08223691
9	0x3b936e04	0.004499199

sequential/dense/MatMul f4 [10, 128]
0	0xbd9c5787	-0.07633882
1	0x3e497372	0.19672945
2	0x3e5441a1	0.2072816
3	0xbd564c7d	-0.05231904
4	0xbda101fd	-0.07861707
5	0x3e1f4738	0.15554512
6	0x3dab57b7	0.0836634
7	0xbdf36dad	-0.11886153
8	0x3c82a4e9	0.015947776
9	0x3e58daf2	0.21177271
10	0xbe348eb9	-0.1763257
11	0x3e9c657b	0.30546173
12	0xbe1a5bae	-0.15074036
13	0x3d5f2422	0.05447782
14	0x3e3e8059	0.18603648
15	0xbd654dcd	-0.0559824
16	0x3e0f58a2	0.13998654
17	0x3ddc5877	0.10759061
18	0x3cfe6420	0.031053603
19	0x3dee3d24	0.116327554
20	0x3e1f3a69	0.15549625
21	0xbc5271a2	-0.012844475
22	0x3e33c721	0.1755643
23	0x3e20e143	0.1571093
24	0xbdb13fc9	-0.08654744
25	0xbdd62d64	-0.10457876
26	0x3d5d356f	0.054006036
27	0xbe163e53	-0.14672212
28	0x3e16c3c6	0.14723119
29	0xbc498232	-0.012299107
30	0x3d2d7900	0.042351723
31	0x3ea61e27	0.3244488
32	0xbe0975bf	-0.13423823
33	0x3e9e3a32	0.30903774
34	0xbdc04275	-0.09387676
35	0x3ea572f9	0.3231428
36	0xbe535f31	-0.20641781
37	0x3e2af6c7	0.166957
38	0x3de8d980	0.1136961
39	0xbe497776	-0.19674477
40	0x3ddb778f	0.10716163
41	0xbe4aafcd	-0.19793625
42	0xbd89571e	-0.067060694
43	0xbe47cf48	-0.19512665
44	0x3dac5445	0.08414511
45	0x3e3059c5	0.17221744
46	0x3df8187d	0.12114046
47	0xbe0daa3a	-0.13834468
48	0x3b4fbf54	0.0031699734
49	0x3e11ee6d	0.14251108
50	0xbe0e7c13	-0.13914518
51	0x3e359359	0.1773199
52	0x3e670569	0.22560658
53	0xbe57ff2c	-0.21093434
54	0x3e26ac58	0.16276681
55	0x3d6da455	0.058018047
56	0xbe490235	-0.19629748
57	0x3dacc0fc	0.08435246
58	0x3dad4eae	0.084622726
59	0xbdd93e69	-0.10607607
60	0xbeac1bf6	-0.33615083
61	0xbdd603ea	-0.10449965
62	0xbce00b7e	-0.02734923
63	0xbd9acab9	-0.075581975
64	0xbe443762	-0.19161752
65	0x3d8bec96	0.068322346
66	0xbdc59cc3	-0.096490405
67	0x3e1fb97c	0.155981
68	0xbe948406	-0.29006976
69	0x3e44b961	0.19211341
70	0x3e01f8aa	0.12692514
71	0xbd074455	-0.03302415
72	0xbe26b31f	-0.16279267
73	0xbe8ea5c5	-0.27860847
74	0xbd358141	-0.04431272
75	0xbd645e90	-0.055754244
76	0x3e5f23cc	0.21790999
77	0x3e48a414	0.19593841
78	0xbd28d818	-0.041221708
79	0xbc958bcf	-0.018255142
80	0xbd819195	-0.06326596
81	0x3c22a16f	0.009926184
82	0xbe6fc43a	-0.23414698
83	0xbed64c52	-0.41855103
84	0xbdca3e6c	-0.09875187
85	0xbcbb103e	-0.022834893
86	0x3c87b187	0.016564144
87	0xbd928850	-0.07154906
88	0xbdf340e0	-0.11877608
89	0xbe2430e1	-0.16034271
90	0x3e50c7df	0.20388745
91	0xbe6e863c	-0.23293394
92	0xbc6dd3e4	-0.014515851
93	0x3daddcd8	0.08489388
94	0xbd090c3a	-0.033458926
95	0xbe92d370	-0.2867694
96	0x3e202762	0.15640023
97	0xbe9141a6	-0.28370398
98	0x3dce74e8	0.10080892
99	0x3e375a4c	0.1790554
100	0x3e3ac225	0.18238123
101	0xbce9de0e	-0.028548267
102	0x3e373c2a	0.17894045
103	0x3e503b7f	0.20335196
104	0x3cad987d	0.021190876
105	0xbccfbd2f	-0.025358764
106	0x3e72c869	0.23709263
107	0x3e28c116	0.16479906
108	0xbb831bb3	-0.0040011047
109	0xbeb60d32	-0.35556942
110	0x3e6bfdc1	0.23046018
111	0x3d3443f3	0.044010114
112	0xbdad8ac8	-0.08473736
113	0x3dad628c	0.08466062
114	0x3dcde6eb	0.1005381
115	0xbdb6952e	-0.089151725
116	0xbdc3317b	-0.09530922
117	0xbe7e1f96	-0.24816737
118	0x3d23c6dd	0.039984573
119	0xbe2f5f02	-0.17126086
120	0xbd85095e	-0.06495927
121	0xbdf08c1a	-0.11745472
122	0xbe093510	-0.13399148
123	0xbe3cf044	-0.18451029
124	0xbd892eec	-0.06698403
125	0x3dc878a1	0.09788633
126	0xbc8db76f	-0.017299382
127	0xbd4d3a00	-0.05010414
128	0xbda04107	-0.07824903
129	0xbe283ba6	-0.16429004
130	0x3e29d09d	0.16583486
131	0x3defa5dc	0.11701557
132	0xbd3ca565	-0.04605617
133	0xbe57b5ba	-0.21065417
134	0xbd6b190c	-0.057396933
135	0xbdb18bbb	-0.086692296
136	0xbc9f0566	-0.019411754
137	0xbe520eae	-0.20513412
138	0x3da7c020	0.08190942
139	0x3d61b377	0.05510279
140	0xbe07c056	-0.13256964
141	0x3e703a1c	0.23459667
142	0xbbe6cc7e	-0.0070434203
143	0xbc1c81e1	-0.00955245
144	0x3e306634	0.17226487
145	0x3e01c160	0.12671423
146	0xbeab8e1c	-0.33506858
147	0x3e0d7ce7	0.13817178
148	0x3e82f0d0	0.2557435
149	0x3e7a7bc3	0.24461274
150	0x3cd97868	0.026546672
151	0xbe4731e0	-0.1945262
152	0x3e6b5d86	0.22984895
153	0x3d5ee1c9	0.054414544
154	0xbcc45fbc	-0.023971431
155	0xbc941397	-0.018075747
156	0x3e58be01	0.2116623
157	0x3e4ed247	0.20197402
158	0x3de034ab	0.109475456
159	0x3e2491e2	0.16071275
160	0x3e05cbc1	0.13066007
161	0x3a274cab	0.0006381969
162	0x3d0fc851	0.035103146
163	0x3c85659a	0.016283799
164	0x3e081935	0.13290866
165	0x3d0ab5ca	0.033864774
166	0xbdee02a9	-0.11621601
167	0xbdb95a80	-0.09050465
168	0x3d2a0693	0.041510176
169	0x3ea21e29	0.31663635
170	0xbd681827	-0.05666366
171	0xbdcaa632	-0.098949805
172	0x3e21d707	0.15804683
173	0xbb992396	-0.0046734316
174	0x3dfe16aa	0.124066666
175	0xbe2da361	-0.16956855
176	0x3e1ca492	0.15297154
177	0x3dc4e13f	0.09613275
178	0x39623b32	0.00021575092
179	0x3e16ba74	0.14719564
180	0x3ea03817	0.31292793
181	0xbd51f8b4	-0.051262572
182	0xbc90bd47	-0.01766838
183	0x3d8e23c4	0.069404155
184	0xbc82b387	-0.015954746
185	0xbe31a0a0	-0.1734643
186	0x3e8cb2e0	0.2748022
187	0x3e34e577	0.17665659
188	0xbe4dddea	-0.20104185
189	0x3db7eaec	0.08980355
190	0x3c91d708	0.01780273
191	0x3d72c105	0.05926611
192	0x3e92ff08	0.28710198
193	0xbd3a189e	-0.045433633
194	0x3d0bd8d2	0.034142323
195	0x3d1cc6e9	0.038275633
196	0x3e0b6291	0.13611819
197	0xbd20d93c	-0.03926967
198	0xbde5c2da	-0.112188056
199	0xbe9b355e	-0.30314153
200	0xbd75cea6	-0.06001153
201	0xbe53555d	-0.20638032
202	0x3e499f26	0.19689617
203	0xbe221456	-0.1582807
204	0xbe06b682	-0.13155559
205	0x3e3bdd16	0.18346056
206	0xbe4bfd3d	-0.19920821
207	0xbd975b13	-0.07390418
208	0x3dcb3c16	0.0992357
209	0x3e54380a	0.20724502
210	0x3df5f34b	0.12009295
211	0x3c85e25b	0.016343286
212	0x3e44da62	0.19223931
213	0xbe051cb9	-0.12999238
214	0x3c4938ec	0.012281638
215	0x3db80fa3	0.089873575
216	0xbda79e16	-0.081844494
217	0x3db99f80	0.09063625
218	0xbe17c493	-0.14821081
219	0x3e0eaecb	0.13933866
220	0xbbf15c33	-0.0073657273
221	0xbe071e02	-0.13195041
222	0xbeb42e25	-0.35191455
223	0xbeb044db	-0.34427533
224	0x3d0c22cb	0.03421287
225	0x3e5ee17a	0.217657
226	0xbe810cb3	-0.25205
227	0xbe5b7b62	-0.21433786
228	0x3eb676be	0.35637468
229	0xbe2e955e	-0.17049167
230	0xbe22ec3a	-0.15910426
231	0xbdfca92b	-0.12336954
232	0x3d40bc88	0.047054797
233	0x3e58dc31	0.21177746
234	0xbdee8e6c	-0.116482586
235	0xbdff2a65	-0.12459258
236	0xbe2f0028	-0.17089903
237	0xbde40f8d	-0.111357786
238	0xbdfbcd66	-0.12295036
239	0xbcd46a31	-0.025929542
240	0xbe3ef297	-0.18647228
241	0xbe263a13	-0.16233091
242	0xbe1303f1	-0.14356972
243	0x3e031e10	0.12804437
244	0xbe479bbd	-0.19493003
245	0xbe392eaa	-0.18084207
246	0xbee6bb74	-0.4506489
247	0xbd243246	-0.040087007
248	0xbb9259b9	-0.004466262
249	0xbe3d63eb	-0.18495147
250	0x3ee4c374	0.4468037
251	0xbe2cfe1a	-0.16893807
252	0xbdfaebcf	-0.12252008
253	0xbe221951	-0.1582997
254	0x3e7a7259	0.24457683
255	0x3e0a6365	0.13514479
